project1/kws_model6.tflite (tflite, 8560 bytes, 5 tensors)

complex2_cnn/batch_normalization_1/FusedBatchNormV3 i1 [8] scale=0.01031613 zero_point=0
00000000: 97b2 aaa9 9da6 9b81
-1.0831937 -0.8046581 -0.8871872 -0.8975033 -1.0212969 -0.92845166 -1.0419291 -1.3101485

complex2_cnn/batch_normalization_1/FusedBatchNormV31 i1 [8] scale=0.024815604 zero_point=0
00000000: 3a79 5c4b 6b44 7f41
1.4393051 3.0026882 2.2830355 1.8611703 2.6552696 1.6874611 3.1515818 1.6130142

complex2_cnn/dense/MatMul i1 [4, 560] scale=0.0017857577 zero_point=0
00000000: 06ef e6f1 0c03 2905 04d0 ed0a c21b e912
00000010: 3704 dcfd 3a2e 2fdf 0bcb d407 d315 e213
00000020: bddf 0219 091c 0c12 e1f7 0ff1 fcf8 e1ec
00000030: f8df f7fa 16f4 e8b1 25e0 dbe9 1712 2d16
00000040: 2811 d7ed e915 0740 cc20 e9fd c428 1ac9
00000050: fd08 23f8 e0e6 dbf7 dc16 2d19 ef14 e7db
00000060: f212 21ec e7e2 f3f9 07e5 19df 041d e2f1
00000070: d6cd aed8 0519 480f 0918 1bd4 f9f7 0839
00000080: 0a1a 1b11 eefb 3b02 e9f3 353e ce09 24f9
00000090: 17f4 fdef 20cc e7d6 1ceb fbe4 ceff c7dd
000000a0: 2bbd 0e00 ed21 1ec5 01e5 fd12 a820 3628
000000b0: 1553 3707 ae0b 2bf5 0b61 22f2 f905 3edc
000000c0: db02 510e d5dc 440c 05ff fe0f 0015 cecd
000000d0: c5f0 36df fcfd efcd d1d4 06e0 22db 15c3
000000e0: e3c1 cc0a aac2 152b f11c 3dd6 a8ca 3dfa
000000f0: dd54 5609 d2c0 48d2 0c17 2842 f8b4 05d5
0.010714546 -0.03035788 -0.0464297 -0.026786366 0.021429092 0.005357273 0.073216066 0.008928789
0.007143031 -0.08571637 -0.033929396 0.017857578 -0.110716976 0.04821546 -0.04107243 0.032143638
0.098216675 0.007143031 -0.064287275 -0.005357273 0.10357395 0.08214486 0.08393061 -0.058930006
0.019643335 -0.09464516 -0.07857334 0.012500304 -0.080359094 0.03750091 -0.053572733 0.033929396
-0.11964577 -0.058930006 0.0035715154 0.044643942 0.016071819 0.050001215 0.021429092 0.032143638
-0.055358488 -0.016071819 0.026786366 -0.026786366 -0.007143031 -0.014286062 -0.055358488 -0.035715155
-0.014286062 -0.058930006 -0.016071819 -0.010714546 0.03928667 -0.021429092 -0.042858183 -0.14107487
0.06607304 -0.057144247 -0.06607304 -0.04107243 0.04107243 0.032143638 0.080359094 0.03928667
0.07143031 0.03035788 -0.073216066 -0.033929396 -0.04107243 0.03750091 0.012500304 0.114288494
-0.0928594 0.057144247 -0.04107243 -0.005357273 -0.107145466 0.07143031 0.0464297 -0.098216675
-0.005357273 0.014286062 0.06250152 -0.014286062 -0.057144247 -0.0464297 -0.06607304 -0.016071819
-0.064287275 0.03928667 0.080359094 0.044643942 -0.03035788 0.035715155 -0.044643942 -0.06607304
-0.025000608 0.032143638 0.058930006 -0.035715155 -0.044643942 -0.053572733 -0.02321485 -0.012500304
0.012500304 -0.04821546 0.044643942 -0.058930006 0.007143031 0.051786974 -0.053572733 -0.026786366
-0.07500182 -0.09107365 -0.14643213 -0.07143031 0.008928789 0.044643942 0.12857455 0.026786366
0.016071819 0.042858183 0.04821546 -0.07857334 -0.012500304 -0.016071819 0.014286062 0.10178819
0.017857578 0.0464297 0.04821546 0.03035788 -0.032143638 -0.008928789 0.1053597 0.0035715154
-0.04107243 -0.02321485 0.09464516 0.110716976 -0.089287885 0.016071819 0.064287275 -0.012500304
0.04107243 -0.021429092 -0.005357273 -0.03035788 0.057144247 -0.0928594 -0.044643942 -0.07500182
0.050001215 -0.03750091 -0.008928789 -0.050001215 -0.089287885 -0.0017857577 -0.10178819 -0.06250152
0.07678758 -0.11964577 0.025000608 0.0 -0.033929396 0.058930006 0.053572733 -0.1053597
0.0017857577 -0.04821546 -0.005357273 0.032143638 -0.15714668 0.057144247 0.09643092 0.07143031
0.03750091 0.14821789 0.098216675 0.012500304 -0.14643213 0.019643335 0.07678758 -0.019643335
0.019643335 0.1732185 0.06071576 -0.025000608 -0.012500304 0.008928789 0.110716976 -0.064287275
-0.06607304 0.0035715154 0.14464638 0.025000608 -0.07678758 -0.064287275 0.12143152 0.021429092
0.008928789 -0.0017857577 -0.0035715154 0.026786366 0.0 0.03750091 -0.089287885 -0.09107365
-0.1053597 -0.028572123 0.09643092 -0.058930006 -0.007143031 -0.005357273 -0.03035788 -0.09107365
-0.08393061 -0.07857334 0.010714546 -0.057144247 0.06071576 -0.06607304 0.03750091 -0.10893122
-0.051786974 -0.11250274 -0.0928594 0.017857578 -0.15357517 -0.110716976 0.03750091 0.07678758
-0.026786366 0.050001215 0.10893122 -0.07500182 -0.15714668 -0.09643092 0.10893122 -0.010714546
-0.06250152 0.15000364 0.15357517 0.016071819 -0.08214486 -0.114288494 0.12857455 -0.08214486
0.021429092 0.04107243 0.07143031 0.11786001 -0.014286062 -0.13571759 0.008928789 -0.07678758

complex2_cnn/conv2d/Conv2D i1 [4, 4, 4, 1]
00000000: 242c c59f dfc9 4f3f 2115 dd63 e2cd 0581
00000010: f750 f608 b4a5 166f 4968 319b 6d59 7f57
00000020: 727f d538 0f2d 0d8a 5011 9f00 c3c5 c441
00000030: d029 236e 2c47 3d20 41f2 cb7f bf55 58d7
36 44 -59 -97 -33 -55 79 63
33 21 -35 99 -30 -51 5 -127
-9 80 -10 8 -76 -91 22 111
73 104 49 -101 109 89 127 87
114 127 -43 56 15 45 13 -118
80 17 -97 0 -61 -59 -60 65
-48 41 35 110 44 71 61 32
65 -14 -53 127 -65 85 88 -41

complex2_cnn/conv2d_1/Conv2D i1 [8, 4, 4, 4]
00000000: 2cdf 1aea e5bb fa0f 1770 2b1f 4521 3011
00000010: 64fc a8ff 4cc6 4abe 5f09 fd4a fcfc 2425
00000020: b2b8 5bbd a7f1 14dd 816d eb17 102e cfdf
00000030: 3056 e3f3 175f b92a 3b41 d518 1f39 e1df
00000040: f704 1237 22e9 c9d2 ef33 e7d4 e80e 7f1b
00000050: d6dd 05ce f215 05db 06f2 3e39 02e7 06a0
00000060: da1b 3115 e617 36cd 14ef 20db fbb6 38d0
00000070: f056 4f57 19c7 0608 3227 450e e5cd d6e3
00000080: 9b5a c048 0502 2b0d 19de 34f1 10c9 07cf
00000090: 0842 4535 d834 36c9 3d98 bb27 e2a8 b2ad
000000a0: 241e 61ca 1eb3 fe59 d9ed 0dfd c8c8 ae32
000000b0: 05d7 7f18 33fd d829 bcdc fcfb 2ba9 03ab
000000c0: c19d 2cb5 2fbb 2aae ef3d 235e 2ce8 0430
000000d0: d0cc 9bcd ce02 81a5 e923 dde4 9bf3 d263
000000e0: 0bb9 9aff bceb d03d ed25 a755 2702 0a00
000000f0: e243 f8ca d1de 1614 4e17 465f 5051 244b
44 -33 26 -22 -27 -69 -6 15
23 112 43 31 69 33 48 17
100 -4 -88 -1 76 -58 74 -66
95 9 -3 74 -4 -4 36 37
-78 -72 91 -67 -89 -15 20 -35
-127 109 -21 23 16 46 -49 -33
48 86 -29 -13 23 95 -71 42
59 65 -43 24 31 57 -31 -33
-9 4 18 55 34 -23 -55 -46
-17 51 -25 -44 -24 14 127 27
-42 -35 5 -50 -14 21 5 -37
6 -14 62 57 2 -25 6 -96
-38 27 49 21 -26 23 54 -51
20 -17 32 -37 -5 -74 56 -48
-16 86 79 87 25 -57 6 8
50 39 69 14 -27 -51 -42 -29
-101 90 -64 72 5 2 43 13
25 -34 52 -15 16 -55 7 -49
8 66 69 53 -40 52 54 -55
61 -104 -69 39 -30 -88 -78 -83
36 30 97 -54 30 -77 -2 89
-39 -19 13 -3 -56 -56 -82 50
5 -41 127 24 51 -3 -40 41
-68 -36 -4 -5 43 -87 3 -85
-63 -99 44 -75 47 -69 42 -82
-17 61 35 94 44 -24 4 48
-48 -52 -101 -51 -50 2 -127 -91
-23 35 -35 -28 -101 -13 -46 99
11 -71 -102 -1 -68 -21 -48 61
-19 37 -89 85 39 2 10 0
-30 67 -8 -54 -47 -34 22 20
78 23 70 95 80 81 36 75
