final_project/kws_model_ard.tflite (tflite, 59808 bytes, 7 tensors)

complex_cnn/batch_normalization/FusedBatchNormV3 i1 [16] scale=0.017846921 zero_point=0
0	0xe8	-0.42832613
1	0x92	-1.9631613
2	0xc9	-0.9815807
3	0xe6	-0.46401995
4	0xd2	-0.8209584
5	0xd1	-0.8388053
6	0xff	-0.017846921
7	0x81	-2.2665591
8	0xd6	-0.7495707
9	0x8d	-2.052396
10	0xd3	-0.8031115
11	0xa4	-1.6419168
12	0xd9	-0.69602996
13	0xab	-1.5169883
14	0x95	-1.9096206
15	0xc6	-1.0351214

complex_cnn/batch_normalization/FusedBatchNormV31 i1 [16] scale=0.023671517 zero_point=0
0	0x11	0.40241578
1	0x04	0.09468607
2	0x05	0.118357584
3	0x12	0.42608732
4	0x0d	0.30772972
5	0x07	0.16570061
6	0x7f	3.0062826
7	0x02	0.047343034
8	0x07	0.16570061
9	0x05	0.118357584
10	0x09	0.21304366
11	0x07	0.16570061
12	0x05	0.118357584
13	0x04	0.09468607
14	0x05	0.118357584
15	0x0c	0.2840582

complex_cnn/dense/MatMul i1 [256, 144] scale=0.0013936666 zero_point=0
0	0xf3	-0.018117666
1	0xeb	-0.029266998
2	0xd4	-0.06132133
3	0xe4	-0.039022665
4	0xe8	-0.033448
5	0xd0	-0.066896
6	0xf9	-0.009755666
7	0x45	0.096163
8	0xfb	-0.006968333
9	0xcf	-0.06828967
10	0xfb	-0.006968333
11	0x25	0.051565666
12	0xfc	-0.0055746664
13	0xe6	-0.036235332
14	0x54	0.11706799
15	0xce	-0.06968333
16	0xc2	-0.086407326
17	0xff	-0.0013936666
18	0xc7	-0.079439
19	0xda	-0.05295933
20	0xff	-0.0013936666
21	0xcf	-0.06828967
22	0xc2	-0.086407326
23	0x59	0.12403633
24	0x22	0.047384664
25	0xbb	-0.096163
26	0xe7	-0.034841664
27	0x1c	0.039022665
28	0xd0	-0.066896
29	0x47	0.09895033
30	0x26	0.05295933
31	0x65	0.14076033
32	0xc6	-0.08083266
33	0xbe	-0.091982
34	0xfa	-0.008362
35	0x51	0.112886995
36	0x1c	0.039022665
37	0xbe	-0.091982
38	0xd0	-0.066896
39	0x56	0.11985533
40	0x0a	0.013936666
41	0x55	0.11846166
42	0xdd	-0.048778333
43	0x3c	0.08362
44	0xee	-0.025085999
45	0x1d	0.04041633
46	0xc1	-0.087800995
47	0xf2	-0.019511333
48	0xe7	-0.034841664
49	0xb3	-0.10731233
50	0xdc	-0.050171997
51	0x02	0.0027873332
52	0x53	0.11567433
53	0x25	0.051565666
54	0xb3	-0.10731233
55	0x21	0.045991
56	0x36	0.075257994
57	0xc5	-0.08222633
58	0x6d	0.15190966
59	0x51	0.112886995
60	0xa9	-0.121249
61	0x2e	0.06410866
62	0xa6	-0.12542999
63	0x64	0.13936666
64	0x36	0.075257994
65	0xcc	-0.072470665
66	0x1e	0.04181
67	0xee	-0.025085999
68	0x48	0.100343995
69	0xe7	-0.034841664
70	0x24	0.050171997
71	0xd9	-0.054353
72	0x20	0.04459733
73	0x43	0.09337566
74	0x28	0.055746663
75	0xc2	-0.086407326
76	0x2f	0.06550233
77	0xbf	-0.09058833
78	0x4e	0.108706
79	0xb7	-0.10173766
80	0x07	0.009755666
81	0xfe	-0.0027873332
82	0xa0	-0.133792
83	0xcb	-0.07386433
84	0x0d	0.018117666
85	0x33	0.071077
86	0x0c	0.016724
87	0xa7	-0.12403633
88	0xfa	-0.008362
89	0xeb	-0.029266998
90	0xaf	-0.112886995
91	0x4a	0.10313133
92	0xb3	-0.10731233
93	0xd9	-0.054353
94	0x16	0.030660665
95	0xdc	-0.050171997
96	0x0f	0.020905
97	0x43	0.09337566
98	0xcf	-0.06828967
99	0xf8	-0.011149333
100	0x70	0.15609066
101	0x3b	0.08222633
102	0xc8	-0.07804533
103	0xd8	-0.055746663
104	0x08	0.011149333
105	0x4e	0.108706
106	0xee	-0.025085999
107	0x05	0.006968333
108	0x3d	0.085013665
109	0xd4	-0.06132133
110	0xbf	-0.09058833
111	0x55	0.11846166
112	0xbf	-0.09058833
113	0xf7	-0.012542999
114	0x22	0.047384664
115	0xd7	-0.05714033
116	0x34	0.072470665
117	0xd5	-0.059927665
118	0x04	0.0055746664
119	0xe9	-0.03205433
120	0x21	0.045991
121	0x37	0.07665166
122	0xa9	-0.121249
123	0xcd	-0.071077
124	0xdc	-0.050171997
125	0xa5	-0.12682366
126	0x24	0.050171997
127	0xc4	-0.08362
128	0xbb	-0.096163
129	0x22	0.047384664
130	0x4b	0.10452499
131	0x13	0.026479665
132	0x05	0.006968333
133	0x21	0.045991
134	0xef	-0.023692332
135	0x16	0.030660665
136	0xb5	-0.10452499
137	0x13	0.026479665
138	0xb2	-0.108706
139	0xce	-0.06968333
140	0xa8	-0.12264266
141	0x44	0.09476933
142	0x34	0.072470665
143	0xc2	-0.086407326
144	0xbb	-0.096163
145	0xd8	-0.055746663
146	0x20	0.04459733
147	0x2e	0.06410866
148	0xbe	-0.091982
149	0xe5	-0.037628997
150	0xbc	-0.09476933
151	0x17	0.03205433
152	0xd4	-0.06132133
153	0xc0	-0.08919466
154	0xce	-0.06968333
155	0x35	0.07386433
156	0x0e	0.019511333
157	0x35	0.07386433
158	0x96	-0.14772867
159	0x1c	0.039022665
160	0xbb	-0.096163
161	0x10	0.022298666
162	0x30	0.066896
163	0xf7	-0.012542999
164	0x0e	0.019511333
165	0x05	0.006968333
166	0x18	0.033448
167	0x97	-0.14633499
168	0xfb	-0.006968333
169	0xd8	-0.055746663
170	0x0b	0.015330332
171	0xf8	-0.011149333
172	0xac	-0.11706799
173	0x04	0.0055746664
174	0x3b	0.08222633
175	0xfd	-0.004181
176	0xc2	-0.086407326
177	0xe3	-0.04041633
178	0x22	0.047384664
179	0xdc	-0.050171997
180	0xcc	-0.072470665
181	0x0c	0.016724
182	0xf5	-0.015330332
183	0x13	0.026479665
184	0xa1	-0.13239832
185	0x06	0.008362
186	0x9b	-0.14076033
187	0xa7	-0.12403633
188	0x28	0.055746663
189	0x2d	0.062714994
190	0xa8	-0.12264266
191	0x3a	0.08083266
192	0xc0	-0.08919466
193	0xbe	-0.091982
194	0xb1	-0.11009966
195	0xa9	-0.121249
196	0xd9	-0.054353
197	0x2a	0.058533996
198	0x14	0.027873332
199	0xb0	-0.11149333
200	0xcd	-0.071077
201	0xe5	-0.037628997
202	0x05	0.006968333
203	0x02	0.0027873332
204	0x15	0.029266998
205	0xe5	-0.037628997
206	0xb9	-0.09895033
207	0xf9	-0.009755666
208	0x40	0.08919466
209	0x1d	0.04041633
210	0x2c	0.06132133
211	0xe2	-0.04181
212	0x26	0.05295933
213	0xf5	-0.015330332
214	0xb7	-0.10173766
215	0xaf	-0.112886995
216	0xf4	-0.016724
217	0xdc	-0.050171997
218	0x38	0.07804533
219	0xa0	-0.133792
220	0xf1	-0.020905
221	0xc9	-0.07665166
222	0x33	0.071077
223	0x48	0.100343995
224	0x18	0.033448
225	0x34	0.072470665
226	0x10	0.022298666
227	0xe8	-0.033448
228	0x08	0.011149333
229	0xb8	-0.100343995
230	0x0a	0.013936666
231	0xa1	-0.13239832
232	0xa8	-0.12264266
233	0x2a	0.058533996
234	0x1a	0.036235332
235	0x16	0.030660665
236	0xe9	-0.03205433
237	0xdf	-0.045991
238	0xef	-0.023692332
239	0xa0	-0.133792
240	0x1c	0.039022665
241	0xf3	-0.018117666
242	0xd6	-0.058533996
243	0xc0	-0.08919466
244	0xac	-0.11706799
245	0x3f	0.087800995
246	0x40	0.08919466
247	0xf6	-0.013936666
248	0x1f	0.043203663
249	0x57	0.121249
250	0x05	0.006968333
251	0x08	0.011149333
252	0x03	0.004181
253	0x20	0.04459733
254	0x26	0.05295933
255	0xd5	-0.059927665

complex_cnn/dense_1/MatMul i1 [4, 256] scale=0.0017569511 zero_point=0
0	0xc5	-0.103660114
1	0xe9	-0.040409874
2	0xa7	-0.15636864
3	0xaa	-0.15109779
4	0x9c	-0.1756951
5	0x0a	0.01756951
6	0xef	-0.029868169
7	0x50	0.14055608
8	0x10	0.028111218
9	0x37	0.09663231
10	0xea	-0.038652923
11	0xcf	-0.0860906
12	0xaa	-0.15109779
13	0x5c	0.1616395
14	0x36	0.09487536
15	0xfd	-0.005270853
16	0xd1	-0.0825767
17	0xae	-0.14406998
18	0xbc	-0.119472675
19	0x1f	0.054465484
20	0x81	-0.22313279
21	0xbe	-0.11595877
22	0x53	0.14582694
23	0xa7	-0.15636864
24	0x1c	0.04919463
25	0xe1	-0.054465484
26	0x97	-0.18447986
27	0xa6	-0.1581256
28	0xbe	-0.11595877
29	0xaf	-0.14231303
30	0xa1	-0.16691035
31	0x0f	0.026354266
32	0x44	0.119472675
33	0xc4	-0.105417065
34	0xa4	-0.1616395
35	0x39	0.10014621
36	0xb9	-0.12474353
37	0xcc	-0.091361456
38	0xbf	-0.11420182
39	0xe9	-0.040409874
40	0xd4	-0.077305846
41	0xc3	-0.10717402
42	0x31	0.0860906
43	0xc1	-0.11068792
44	0x2b	0.075548895
45	0xb5	-0.13177133
46	0x1c	0.04919463
47	0xa4	-0.1616395
48	0x53	0.14582694
49	0xe0	-0.056222435
50	0xc1	-0.11068792
51	0x0a	0.01756951
52	0x22	0.059736338
53	0xdc	-0.063250236
54	0x0a	0.01756951
55	0x4d	0.13528523
56	0xd2	-0.08081975
57	0xcf	-0.0860906
58	0x34	0.091361456
59	0xbb	-0.121229626
60	0xd3	-0.0790628
61	0x57	0.15285474
62	0x11	0.029868169
63	0x91	-0.19502157
64	0xac	-0.14758389
65	0xd5	-0.075548895
66	0x04	0.0070278044
67	0xcc	-0.091361456
68	0x4b	0.13177133
69	0xf7	-0.015812559
70	0xe6	-0.045680728
71	0xd2	-0.08081975
72	0x08	0.014055609
73	0x8e	-0.20029242
74	0xa1	-0.16691035
75	0x97	-0.18447986
76	0xc3	-0.10717402
77	0xb7	-0.12825742
78	0xc7	-0.10014621
79	0xc4	-0.105417065
80	0x53	0.14582694
81	0xce	-0.08784755
82	0x3a	0.10190316
83	0x27	0.06852109
84	0x60	0.1686673
85	0x2d	0.0790628
86	0xfb	-0.008784755
87	0x2c	0.077305846
88	0x12	0.031625118
89	0xa3	-0.16339645
90	0xe5	-0.04743768
91	0xd7	-0.07203499
92	0xf4	-0.021083413
93	0xcc	-0.091361456
94	0xd2	-0.08081975
95	0x55	0.14934084
96	0xd5	-0.075548895
97	0x3d	0.10717402
98	0xa3	-0.16339645
99	0x92	-0.19326462
100	0x42	0.11595877
101	0xec	-0.03513902
102	0xa9	-0.15285474
103	0x33	0.089604504
104	0xbd	-0.117715724
105	0x1c	0.04919463
106	0xc0	-0.11244487
107	0x33	0.089604504
108	0x03	0.005270853
109	0x97	-0.18447986
110	0x62	0.1721812
111	0xea	-0.038652923
112	0x15	0.03689597
113	0xa8	-0.15461169
114	0x1b	0.04743768
115	0xbb	-0.121229626
116	0x1a	0.045680728
117	0xbd	-0.117715724
118	0x4c	0.13352828
119	0x3d	0.10717402
120	0x5d	0.16339645
121	0x29	0.07203499
122	0x05	0.008784755
123	0xa3	-0.16339645
124	0x1f	0.054465484
125	0xc8	-0.09838926
126	0x95	-0.18799376
127	0x12	0.031625118
128	0xa8	-0.15461169
129	0xcd	-0.089604504
130	0x26	0.06676414
131	0x41	0.11420182
132	0xe9	-0.040409874
133	0xe3	-0.05095158
134	0x1d	0.05095158
135	0x53	0.14582694
136	0x23	0.06149329
137	0x11	0.029868169
138	0x60	0.1686673
139	0x1e	0.052708533
140	0xf4	-0.021083413
141	0xf0	-0.028111218
142	0xd7	-0.07203499
143	0xc8	-0.09838926
144	0xe5	-0.04743768
145	0x98	-0.18272291
146	0xf0	-0.028111218
147	0xfe	-0.0035139022
148	0x37	0.09663231
149	0xb3	-0.13528523
150	0x03	0.005270853
151	0xc1	-0.11068792
152	0xf6	-0.01756951
153	0x24	0.063250236
154	0xea	-0.038652923
155	0xf9	-0.012298658
156	0x3a	0.10190316
157	0xb6	-0.13001437
158	0x43	0.117715724
159	0x0a	0.01756951
160	0xd7	-0.07203499
161	0xbe	-0.11595877
162	0x9e	-0.1721812
163	0x09	0.015812559
164	0xfb	-0.008784755
165	0xeb	-0.03689597
166	0x38	0.09838926
167	0xa3	-0.16339645
168	0xcc	-0.091361456
169	0x57	0.15285474
170	0x41	0.11420182
171	0x4a	0.13001437
172	0x2e	0.08081975
173	0x25	0.06500719
174	0xf5	-0.019326461
175	0xee	-0.031625118
176	0x8f	-0.19853547
177	0xca	-0.09487536
178	0xcf	-0.0860906
179	0x12	0.031625118
180	0x23	0.06149329
181	0xf7	-0.015812559
182	0xd3	-0.0790628
183	0xc2	-0.10893097
184	0x23	0.06149329
185	0x3f	0.11068792
186	0xe7	-0.043923777
187	0xcf	-0.0860906
188	0xd4	-0.077305846
189	0xd1	-0.0825767
190	0xb3	-0.13528523
191	0x94	-0.18975072
192	0x97	-0.18447986
193	0xac	-0.14758389
194	0x48	0.12650047
195	0x21	0.057979386
196	0x4c	0.13352828
197	0x32	0.08784755
198	0x9c	-0.1756951
199	0x52	0.14406998
200	0x19	0.043923777
201	0xa0	-0.1686673
202	0xcd	-0.089604504
203	0x9e	-0.1721812
204	0x1f	0.054465484
205	0x06	0.010541706
206	0xe7	-0.043923777
207	0x30	0.08433365
208	0x01	0.0017569511
209	0x00	0.0
210	0x9a	-0.17920901
211	0xaf	-0.14231303
212	0xbd	-0.117715724
213	0xe3	-0.05095158
214	0x06	0.010541706
215	0xa7	-0.15636864
216	0xaf	-0.14231303
217	0x3e	0.10893097
218	0x19	0.043923777
219	0xe9	-0.040409874
220	0xba	-0.12298658
221	0xc8	-0.09838926
222	0xa5	-0.15988255
223	0xf8	-0.014055609
224	0x60	0.1686673
225	0x99	-0.18096596
226	0xa4	-0.1616395
227	0xd6	-0.07379194
228	0x14	0.03513902
229	0xc7	-0.10014621
230	0xc9	-0.09663231
231	0x0a	0.01756951
232	0xd7	-0.07203499
233	0xde	-0.059736338
234	0xea	-0.038652923
235	0xd9	-0.06852109
236	0xf9	-0.012298658
237	0x11	0.029868169
238	0xc6	-0.10190316
239	0xad	-0.14582694
240	0x0f	0.026354266
241	0xc4	-0.105417065
242	0x23	0.06149329
243	0xac	-0.14758389
244	0x24	0.063250236
245	0xac	-0.14758389
246	0x05	0.008784755
247	0x2a	0.07379194
248	0xa0	-0.1686673
249	0x4e	0.13704218
250	0x2e	0.08081975
251	0xb3	-0.13528523
252	0x33	0.089604504
253	0xa4	-0.1616395
254	0x41	0.11420182
255	0xdc	-0.063250236

complex_cnn/conv2d/Conv2D i1 [16, 3, 3, 1]
0	0x4a	74
1	0x24	36
2	0x09	9
3	0x81	-127
4	0x13	19
5	0xca	-54
6	0xd4	-44
7	0x96	-106
8	0xca	-54
9	0xac	-84
10	0x81	-127
11	0x29	41
12	0x79	121
13	0x46	70
14	0xc2	-62
15	0x4f	79
16	0x88	-120
17	0x54	84
18	0x7f	127
19	0x4f	79
20	0x71	113
21	0x1e	30
22	0x96	-106
23	0xc6	-58
24	0xc2	-62
25	0xbf	-65
26	0x95	-107
27	0x95	-107
28	0x5d	93
29	0x81	-127
30	0xc9	-55
31	0x17	23
32	0xe8	-24
33	0x1f	31
34	0x72	114
35	0x69	105
36	0xdf	-33
37	0xd8	-40
38	0xa2	-94
39	0x77	119
40	0x42	66
41	0x81	-127
42	0x33	51
43	0xc4	-60
44	0x4f	79
45	0xd6	-42
46	0xe1	-31
47	0x14	20
48	0x2e	46
49	0x00	0
50	0xb7	-73
51	0x7f	127
52	0x9f	-97
53	0xf2	-14
54	0x7f	127
55	0x6d	109
56	0x3d	61
57	0x1e	30
58	0x67	103
59	0x36	54
60	0xde	-34
61	0x4b	75
62	0x60	96
63	0x2c	44
64	0xaa	-86
65	0xd3	-45
66	0x7f	127
67	0xe8	-24
68	0x7d	125
69	0x2b	43
70	0x13	19
71	0x8e	-114
72	0x2d	45
73	0x4b	75
74	0x31	49
75	0xc4	-60
76	0x76	118
77	0x78	120
78	0xf4	-12
79	0xaa	-86
80	0x7f	127
81	0xc7	-57
82	0x1a	26
83	0x55	85
84	0x81	-127
85	0xa1	-95
86	0x32	50
87	0xa6	-90
88	0x77	119
89	0x22	34
90	0x72	114
91	0xbf	-65
92	0x8a	-118
93	0xc3	-61
94	0xb7	-73
95	0x4a	74
96	0x81	-127
97	0xd7	-41
98	0x2b	43
99	0x00	0
100	0x9f	-97
101	0x77	119
102	0x72	114
103	0x2b	43
104	0x8b	-117
105	0x81	-127
106	0xbf	-65
107	0xb9	-71
108	0x82	-126
109	0x9b	-101
110	0x7f	127
111	0x5e	94
112	0xc5	-59
113	0x6d	109
114	0x1c	28
115	0x38	56
116	0x8f	-113
117	0x4c	76
118	0xf3	-13
119	0x97	-105
120	0x10	16
121	0x8f	-113
122	0x98	-104
123	0xa8	-88
124	0x81	-127
125	0xda	-38
126	0x35	53
127	0x26	38
128	0xb3	-77
129	0x3f	63
130	0x10	16
131	0xcf	-49
132	0x7f	127
133	0x19	25
134	0x48	72
135	0x55	85
136	0x4a	74
137	0xce	-50
138	0x8a	-118
139	0x81	-127
140	0x37	55
141	0xc7	-57
142	0x2f	47
143	0x57	87

complex_cnn/conv2d_1/Conv2D i1 [32, 4, 4, 16]
0	0xcb	-53
1	0x42	66
2	0x47	71
3	0x37	55
4	0x57	87
5	0xcc	-52
6	0x63	99
7	0xaa	-86
8	0x60	96
9	0x28	40
10	0x18	24
11	0xe5	-27
12	0x2b	43
13	0xd8	-40
14	0xda	-38
15	0x43	67
16	0x34	52
17	0xc6	-58
18	0x2c	44
19	0x04	4
20	0xb1	-79
21	0x7d	125
22	0x62	98
23	0xf3	-13
24	0xe1	-31
25	0x20	32
26	0x1e	30
27	0xb0	-80
28	0x4e	78
29	0xcc	-52
30	0xac	-84
31	0x3d	61
32	0x02	2
33	0xbb	-69
34	0x0b	11
35	0xc4	-60
36	0xb4	-76
37	0x4b	75
38	0x18	24
39	0xf8	-8
40	0xa9	-87
41	0xa5	-91
42	0x19	25
43	0xc6	-58
44	0xec	-20
45	0x9f	-97
46	0x52	82
47	0xc1	-63
48	0x49	73
49	0xb0	-80
50	0x07	7
51	0x23	35
52	0x8e	-114
53	0x21	33
54	0xfe	-2
55	0x4b	75
56	0x5d	93
57	0xf1	-15
58	0xb3	-77
59	0x01	1
60	0x17	23
61	0xb0	-80
62	0x3b	59
63	0xfc	-4
64	0x1b	27
65	0xa5	-91
66	0x06	6
67	0xdb	-37
68	0x33	51
69	0xec	-20
70	0x08	8
71	0xe4	-28
72	0xe5	-27
73	0xdb	-37
74	0xeb	-21
75	0xdc	-36
76	0x3d	61
77	0xbb	-69
78	0xa6	-90
79	0x35	53
80	0xdc	-36
81	0x39	57
82	0xfc	-4
83	0xaa	-86
84	0xe6	-26
85	0xd2	-46
86	0x14	20
87	0xff	-1
88	0x2b	43
89	0xda	-38
90	0xf2	-14
91	0xfb	-5
92	0x0d	13
93	0xc5	-59
94	0x2b	43
95	0x37	55
96	0x47	71
97	0xbd	-67
98	0x2c	44
99	0xbe	-66
100	0xf0	-16
101	0xdc	-36
102	0xca	-54
103	0x37	55
104	0x0f	15
105	0x02	2
106	0x03	3
107	0x25	37
108	0x06	6
109	0xce	-50
110	0x01	1
111	0xc7	-57
112	0x2e	46
113	0xe5	-27
114	0xfd	-3
115	0xd7	-41
116	0x1e	30
117	0x9d	-99
118	0x55	85
119	0x3e	62
120	0x57	87
121	0x0b	11
122	0xc9	-55
123	0x4f	79
124	0xfd	-3
125	0xe6	-26
126	0x2e	46
127	0x47	71
128	0xdf	-33
129	0xcc	-52
130	0xbf	-65
131	0x42	66
132	0x10	16
133	0x50	80
134	0x20	32
135	0x65	101
136	0xc9	-55
137	0xdb	-37
138	0x2c	44
139	0xa9	-87
140	0x19	25
141	0xe0	-32
142	0x11	17
143	0xce	-50
144	0xe8	-24
145	0xa5	-91
146	0xee	-18
147	0x2c	44
148	0x48	72
149	0x25	37
150	0x42	66
151	0x62	98
152	0xd4	-44
153	0xd6	-42
154	0xe4	-28
155	0x37	55
156	0x59	89
157	0x13	19
158	0xba	-70
159	0x06	6
160	0x0d	13
161	0x3f	63
162	0x35	53
163	0xb7	-73
164	0x27	39
165	0x54	84
166	0xef	-17
167	0x63	99
168	0x06	6
169	0xa0	-96
170	0x24	36
171	0xe2	-30
172	0x48	72
173	0xc0	-64
174	0xb7	-73
175	0xe0	-32
176	0xea	-22
177	0xdf	-33
178	0xc7	-57
179	0xff	-1
180	0xb5	-75
181	0x02	2
182	0xf6	-10
183	0xe7	-25
184	0xcc	-52
185	0xa0	-96
186	0xb1	-79
187	0xe0	-32
188	0x61	97
189	0x99	-103
190	0x45	69
191	0x50	80
192	0x99	-103
193	0xb3	-77
194	0x81	-127
195	0xdb	-37
196	0x48	72
197	0x1e	30
198	0x0f	15
199	0xe1	-31
200	0x39	57
201	0x0c	12
202	0xa7	-89
203	0xc1	-63
204	0x04	4
205	0x00	0
206	0x39	57
207	0x1e	30
208	0x20	32
209	0x5f	95
210	0xf0	-16
211	0x22	34
212	0x43	67
213	0xd8	-40
214	0xb1	-79
215	0xe4	-28
216	0x5a	90
217	0xac	-84
218	0x21	33
219	0x0c	12
220	0x6b	107
221	0xd6	-42
222	0x45	69
223	0x3d	61
224	0x91	-111
225	0x03	3
226	0x42	66
227	0xf0	-16
228	0x12	18
229	0xf6	-10
230	0x20	32
231	0xd2	-46
232	0xa9	-87
233	0x53	83
234	0x52	82
235	0xdf	-33
236	0x0b	11
237	0x08	8
238	0x08	8
239	0xdb	-37
240	0xb5	-75
241	0xe7	-25
242	0x0f	15
243	0xf0	-16
244	0xbf	-65
245	0x29	41
246	0x5f	95
247	0x0c	12
248	0xa8	-88
249	0x34	52
250	0xfe	-2
251	0x00	0
252	0xcc	-52
253	0x42	66
254	0x29	41
255	0x05	5

complex_cnn/conv2d_2/Conv2D i1 [16, 3, 3, 32]
0	0x53	83
1	0xfa	-6
2	0x57	87
3	0x94	-108
4	0xa6	-90
5	0x44	68
6	0x0f	15
7	0x61	97
8	0x24	36
9	0x97	-105
10	0xdc	-36
11	0x43	67
12	0x41	65
13	0xb4	-76
14	0x63	99
15	0xb3	-77
16	0x9a	-102
17	0x86	-122
18	0xf5	-11
19	0xa7	-89
20	0xdc	-36
21	0x1a	26
22	0x4a	74
23	0xe0	-32
24	0xcf	-49
25	0x9c	-100
26	0x0c	12
27	0x63	99
28	0xc3	-61
29	0x21	33
30	0x9f	-97
31	0x60	96
32	0x24	36
33	0x17	23
34	0x6e	110
35	0x63	99
36	0xf6	-10
37	0xf2	-14
38	0x4a	74
39	0x6b	107
40	0x4e	78
41	0x9e	-98
42	0x67	103
43	0xe8	-24
44	0x0e	14
45	0x43	67
46	0x3b	59
47	0x2a	42
48	0xd9	-39
49	0xe6	-26
50	0xe6	-26
51	0x20	32
52	0x4b	75
53	0x44	68
54	0x1e	30
55	0xe5	-27
56	0x13	19
57	0xf9	-7
58	0xf1	-15
59	0xa7	-89
60	0x35	53
61	0xc3	-61
62	0xcb	-53
63	0xe8	-24
64	0xea	-22
65	0x6f	111
66	0x92	-110
67	0x23	35
68	0xe7	-25
69	0xb4	-76
70	0xb0	-80
71	0x2e	46
72	0x3b	59
73	0xd1	-47
74	0xa2	-94
75	0x14	20
76	0x0e	14
77	0xb7	-73
78	0x1a	26
79	0xc6	-58
80	0x69	105
81	0xf7	-9
82	0xbc	-68
83	0x8f	-113
84	0x4c	76
85	0x0c	12
86	0x9d	-99
87	0x81	-127
88	0xaf	-81
89	0x03	3
90	0x99	-103
91	0x1a	26
92	0x08	8
93	0x1d	29
94	0x56	86
95	0x43	67
96	0xea	-22
97	0xe5	-27
98	0x31	49
99	0x95	-107
100	0x49	73
101	0x34	52
102	0x67	103
103	0xd6	-42
104	0xb3	-77
105	0x0b	11
106	0x43	67
107	0xda	-38
108	0xf9	-7
109	0x5f	95
110	0x19	25
111	0x4e	78
112	0x1b	27
113	0x42	66
114	0xb3	-77
115	0x20	32
116	0xf2	-14
117	0xf4	-12
118	0xde	-34
119	0x12	18
120	0xa3	-93
121	0x22	34
122	0x3b	59
123	0x1e	30
124	0x55	85
125	0x9d	-99
126	0x0d	13
127	0x5c	92
128	0x5e	94
129	0xbd	-67
130	0x3b	59
131	0xdd	-35
132	0xfe	-2
133	0xc5	-59
134	0xc6	-58
135	0x0c	12
136	0xde	-34
137	0xd8	-40
138	0x03	3
139	0xba	-70
140	0x07	7
141	0x5d	93
142	0x62	98
143	0x01	1
144	0x12	18
145	0x2a	42
146	0xc1	-63
147	0xf2	-14
148	0xcb	-53
149	0x63	99
150	0xc9	-55
151	0xac	-84
152	0x34	52
153	0x6a	106
154	0xde	-34
155	0xc6	-58
156	0x31	49
157	0xc0	-64
158	0xec	-20
159	0x36	54
160	0x99	-103
161	0x42	66
162	0x64	100
163	0x37	55
164	0xd9	-39
165	0x5a	90
166	0x9c	-100
167	0x3f	63
168	0x92	-110
169	0x96	-106
170	0xf0	-16
171	0xf2	-14
172	0xfe	-2
173	0xa6	-90
174	0xa4	-92
175	0x24	36
176	0x15	21
177	0xca	-54
178	0x49	73
179	0xcf	-49
180	0xef	-17
181	0x17	23
182	0x67	103
183	0x3e	62
184	0x9d	-99
185	0x9f	-97
186	0x28	40
187	0x1d	29
188	0x4f	79
189	0xc1	-63
190	0x56	86
191	0xe1	-31
192	0x1b	27
193	0x70	112
194	0x4d	77
195	0x94	-108
196	0x35	53
197	0x4b	75
198	0x77	119
199	0x68	104
200	0x06	6
201	0x66	102
202	0x49	73
203	0xdf	-33
204	0x49	73
205	0xd3	-45
206	0xcc	-52
207	0xdf	-33
208	0x73	115
209	0x82	-126
210	0xa0	-96
211	0x51	81
212	0xaf	-81
213	0x99	-103
214	0xd7	-41
215	0x1f	31
216	0x07	7
217	0xe0	-32
218	0x5b	91
219	0x2e	46
220	0x00	0
221	0x10	16
222	0xa6	-90
223	0xfc	-4
224	0xf8	-8
225	0x06	6
226	0xc9	-55
227	0x94	-108
228	0x8c	-116
229	0x01	1
230	0xfd	-3
231	0x6c	108
232	0xa2	-94
233	0xd9	-39
234	0xb8	-72
235	0x17	23
236	0x04	4
237	0x85	-123
238	0x23	35
239	0xcc	-52
240	0x02	2
241	0x03	3
242	0xf0	-16
243	0x58	88
244	0xc8	-56
245	0x0c	12
246	0x17	23
247	0xc5	-59
248	0xe6	-26
249	0x9a	-102
250	0xb1	-79
251	0x3f	63
252	0xa3	-93
253	0xd2	-46
254	0x92	-110
255	0x8d	-115
