final_project/kws_model1.tflite (tflite, 40352 bytes, 7 tensors)

complex_cnn/batch_normalization/FusedBatchNormV3 i1 [16] scale=0.018013282 zero_point=0
00000000: ebd1 c400 02ca d7bb bc9a 8fa7 81b6 8f00
-0.3782789 -0.84662426 -1.080797 0.0 0.036026563 -0.9727172 -0.7385445 -1.2429165
-1.2249031 -1.8373548 -2.0355008 -1.6031821 -2.2876868 -1.3329829 -2.0355008 0.0

complex_cnn/batch_normalization/FusedBatchNormV31 i1 [16] scale=0.022178555 zero_point=0
00000000: 0d06 057d 7f03 0605 0503 0406 0305 037b
0.28832123 0.13307133 0.11089277 2.7723193 2.8166764 0.06653567 0.13307133 0.11089277
0.11089277 0.06653567 0.08871422 0.13307133 0.06653567 0.11089277 0.06653567 2.7279623

complex_cnn/dense/MatMul i1 [128, 144] scale=0.0019367085 zero_point=0
00000000: 4036 a7c3 07f7 fa16 1a20 b2a5 1abc 26e1
00000010: e9c0 c3df 4db2 e641 e134 bce9 19e9 e5e0
00000020: 203f 21cb 2ee0 ab37 d6db f70b 18ff af41
00000030: f420 4201 3d09 2201 37d6 30ec f8c1 1b1a
00000040: 201c fc48 dde2 d10c 37c9 cef6 be06 24ff
00000050: c637 c947 e6c1 093d d91e 10bd cef3 b905
00000060: 1d4a dd03 4a4a d01b 502d c249 5a0c 54b6
00000070: e63c e6c4 2c0e fccc f032 3f2d c733 3dd5
00000080: 0bf5 f542 fe18 de31 2143 22f9 dcc3 fd32
00000090: 09ef 1a3b 024d c829 e10a bafe 0df1 0916
000000a0: 19e7 351e 3db6 173f 49e5 4e03 aeb7 3fd0
000000b0: e819 49f9 c9cb 16db b8db e029 dec6 1a30
000000c0: 1dd6 16f2 dcbf 5043 12f5 bfd7 ebc9 1422
000000d0: 4642 e3f1 1b1c 11f5 cb3b c7e2 f8c0 c419
000000e0: 42aa 1af7 1b1f 96dc 16b1 2daa feb5 ab1b
000000f0: d0c5 2af0 51e6 e42d 40f5 3f40 de03 b8ca
0.12394934 0.10458226 -0.17236705 -0.118139215 0.013556959 -0.017430376 -0.0116202505 0.042607587
0.05035442 0.06197467 -0.15106326 -0.17624047 0.05035442 -0.13169618 0.07359492 -0.060037963
-0.044544294 -0.12394934 -0.118139215 -0.06391138 0.14912654 -0.15106326 -0.05035442 0.12588605
-0.060037963 0.10070884 -0.13169618 -0.044544294 0.04841771 -0.044544294 -0.05229113 -0.06197467
0.06197467 0.12201263 0.06391138 -0.102645546 0.08908859 -0.06197467 -0.16462022 0.10651897
-0.08134176 -0.07165822 -0.017430376 0.021303793 0.046481002 -0.0019367085 -0.15687339 0.12588605
-0.023240501 0.06197467 0.12782276 0.0019367085 0.118139215 0.017430376 0.06584809 0.0019367085
0.10651897 -0.08134176 0.092962004 -0.038734168 -0.015493668 -0.12201263 0.05229113 0.05035442
0.06197467 0.054227836 -0.007746834 0.13944301 -0.06778479 -0.058101255 -0.0910253 0.023240501
0.10651897 -0.10651897 -0.09683542 -0.019367084 -0.12782276 0.0116202505 0.069721505 -0.0019367085
-0.11232909 0.10651897 -0.10651897 0.1375063 -0.05035442 -0.12201263 0.017430376 0.118139215
-0.07553163 0.058101255 0.030987335 -0.12975946 -0.09683542 -0.02517721 -0.1375063 0.009683542
0.056164544 0.14331643 -0.06778479 0.0058101253 0.14331643 0.14331643 -0.092962004 0.05229113
0.15493667 0.08715188 -0.120075926 0.14137971 0.17430376 0.023240501 0.16268352 -0.14331643
-0.05035442 0.11620251 -0.05035442 -0.11620251 0.08521517 0.027113918 -0.007746834 -0.10070884
-0.030987335 0.09683542 0.12201263 0.08715188 -0.110392384 0.09877213 0.118139215 -0.08327846
0.021303793 -0.021303793 -0.021303793 0.12782276 -0.003873417 0.046481002 -0.06584809 0.094898716
0.06391138 0.12975946 0.06584809 -0.013556959 -0.069721505 -0.118139215 -0.0058101253 0.09683542
0.017430376 -0.032924045 0.05035442 0.1142658 0.003873417 0.14912654 -0.10845567 0.07940505
-0.060037963 0.019367084 -0.13556959 -0.003873417 0.02517721 -0.029050628 0.017430376 0.042607587
0.04841771 -0.04841771 0.102645546 0.058101255 0.118139215 -0.14331643 0.044544294 0.12201263
0.14137971 -0.05229113 0.15106326 0.0058101253 -0.1588101 -0.14137971 0.12201263 -0.092962004
-0.046481002 0.04841771 0.14137971 -0.013556959 -0.10651897 -0.102645546 0.042607587 -0.07165822
-0.13944301 -0.07165822 -0.06197467 0.07940505 -0.06584809 -0.11232909 0.05035442 0.092962004
0.056164544 -0.08134176 0.042607587 -0.027113918 -0.069721505 -0.12588605 0.15493667 0.12975946
0.034860753 -0.021303793 -0.12588605 -0.07940505 -0.04067088 -0.10651897 0.038734168 0.06584809
0.13556959 0.12782276 -0.056164544 -0.029050628 0.05229113 0.054227836 0.032924045 -0.021303793
-0.102645546 0.1142658 -0.110392384 -0.058101255 -0.015493668 -0.12394934 -0.11620251 0.04841771
0.12782276 -0.16655692 0.05035442 -0.017430376 0.05229113 0.060037963 -0.20529109 -0.069721505
0.042607587 -0.15299997 0.08715188 -0.16655692 -0.003873417 -0.14525314 -0.16462022 0.05229113
-0.092962004 -0.1142658 0.08134176 -0.030987335 0.15687339 -0.05035442 -0.054227836 0.08715188
0.12394934 -0.021303793 0.12201263 0.12394934 -0.06584809 0.0058101253 -0.13944301 -0.10458226

complex_cnn/dense_1/MatMul i1 [4, 128] scale=0.002446742 zero_point=0
00000000: bdee 2990 17eb 3fb4 0d25 3d17 e6fb 4fe5
00000010: 19ad 31ac 5607 411e b919 a354 dcf0 f9f3
00000020: f8db d742 a6e7 df5b 12c1 3b31 d413 2108
00000030: a9c1 9a16 c32a 15d1 56ff f2ac a529 d202
00000040: a5c3 2b29 ce4a 263a f29e dfc5 5d16 18c2
00000050: 2f2c 0617 e5a3 c5a8 c581 cb6b cf12 181e
00000060: 32f6 c3d5 d4ac 29b2 fc90 fddc 3ac3 f145
00000070: 384d e6c6 c4bb a3b7 e306 4d02 3eaf ae2f
00000080: 024f e524 f05a 420d b7c2 c55f 2f44 99c2
00000090: c8d0 3703 e2ec 27ee d353 1a9c 3752 cb1a
000000a0: f8f7 400e 2798 4b23 dc06 4b42 c4b7 e3d2
000000b0: ce31 9ee0 c40a 481e eb09 21c8 b838 e2cd
000000c0: 3e36 c119 d4af ef09 1858 a446 32ea 4d9d
000000d0: 603e 05ca 1610 d1c0 09d9 ea3d 55b3 16f4
000000e0: 08ac 255a 29cb 4ccc 0f4b f2bc def1 0f2c
000000f0: b6dd 3ee6 d142 4bab dbae 3854 c259 dfbc
-0.16393171 -0.044041358 0.10031642 -0.2740351 0.056275066 -0.051381584 0.15414475 -0.1859524
0.031807646 0.09052946 0.14925127 0.056275066 -0.06361529 -0.01223371 0.19329262 -0.06606203
0.06116855 -0.20307958 0.11989036 -0.20552634 0.21041982 0.017127194 0.15903823 0.07340226
-0.17371869 0.06116855 -0.227547 0.20552634 -0.088082716 -0.039147872 -0.017127194 -0.031807646
-0.019573936 -0.09052946 -0.10031642 0.16148497 -0.22020678 -0.06116855 -0.080742486 0.22265352
0.044041358 -0.15414475 0.14435779 0.11989036 -0.10765665 0.0464881 0.080742486 0.019573936
-0.21286656 -0.15414475 -0.24956769 0.053828325 -0.14925127 0.10276317 0.051381584 -0.11499687
0.21041982 -0.002446742 -0.034254387 -0.20552634 -0.22265352 0.10031642 -0.11255013 0.004893484
-0.22265352 -0.14925127 0.10520991 0.10031642 -0.1223371 0.18105891 0.0929762 0.14191104
-0.034254387 -0.23978072 -0.080742486 -0.14435779 0.227547 0.053828325 0.05872181 -0.15169801
0.11499687 0.10765665 0.014680453 0.056275066 -0.06606203 -0.227547 -0.14435779 -0.2153133
-0.14435779 -0.31073624 -0.12967733 0.2618014 -0.11989036 0.044041358 0.05872181 0.07340226
0.1223371 -0.02446742 -0.14925127 -0.10520991 -0.10765665 -0.20552634 0.10031642 -0.19084588
-0.009786968 -0.2740351 -0.0073402263 -0.088082716 0.14191104 -0.14925127 -0.03670113 0.1688252
0.13701755 0.18839914 -0.06361529 -0.14191104 -0.14680453 -0.1688252 -0.227547 -0.17861217
-0.07095552 0.014680453 0.18839914 0.004893484 0.15169801 -0.1981861 -0.20063284 0.11499687
0.004893484 0.19329262 -0.06606203 0.088082716 -0.039147872 0.22020678 0.16148497 0.031807646
-0.17861217 -0.15169801 -0.14435779 0.23244049 0.11499687 0.16637845 -0.25201443 -0.15169801
-0.13701755 -0.11744362 0.1345708 0.0073402263 -0.07340226 -0.04893484 0.09542294 -0.044041358
-0.11010339 0.20307958 0.06361529 -0.2446742 0.1345708 0.20063284 -0.12967733 0.06361529
-0.019573936 -0.022020679 0.15659149 0.034254387 0.09542294 -0.25446117 0.18350565 0.08563597
-0.088082716 0.014680453 0.18350565 0.16148497 -0.14680453 -0.17861217 -0.07095552 -0.11255013
-0.1223371 0.11989036 -0.23978072 -0.078295745 -0.14680453 0.02446742 0.17616543 0.07340226
-0.051381584 0.022020679 0.080742486 -0.13701755 -0.17616543 0.13701755 -0.07340226 -0.124783844
0.15169801 0.13212407 -0.15414475 0.06116855 -0.10765665 -0.1981861 -0.041594613 0.022020679
0.05872181 0.2153133 -0.22510026 0.17127194 0.1223371 -0.053828325 0.18839914 -0.24222746
0.23488724 0.15169801 0.01223371 -0.13212407 0.053828325 0.039147872 -0.11499687 -0.15659149
0.022020679 -0.09542294 -0.053828325 0.14925127 0.20797308 -0.18839914 0.053828325 -0.029360905
0.019573936 -0.20552634 0.09052946 0.22020678 0.10031642 -0.12967733 0.1859524 -0.12723058
0.03670113 0.18350565 -0.034254387 -0.16637845 -0.08318923 -0.03670113 0.03670113 0.10765665
-0.18105891 -0.08563597 0.15169801 -0.06361529 -0.11499687 0.16148497 0.18350565 -0.20797308
-0.09052946 -0.20063284 0.13701755 0.20552634 -0.15169801 0.21776004 -0.080742486 -0.16637845

complex_cnn/conv2d/Conv2D i1 [16, 3, 3, 1]
00000000: 4b6d 8c7d c9b6 7a47 7f61 867d 719e 7fb1
00000010: acec 6d5d 5fa9 0f6f 7fed 237a 7b44 ba32
00000020: e8af 7f03 5e77 880f 7f4c d435 2ebc 08ec
00000030: 7f98 9c76 5ca8 d3d0 7fb2 b562 9e0c 325f
00000040: 7fba ea1e 3666 10cd dbb3 2b2f 45ae 7fb3
00000050: 9a7e bd49 a871 7f8d 5301 d74a 7aad aa7f
00000060: 89bc ac2f 8ffd 928a 7f7c b247 e886 007f
00000070: 879e 06e5 44b0 20be c7dc ab7f 16a7 dc91
00000080: 7f9b 7c65 ddf0 aa8d e51a b5f7 7f16 9c7f
75 109 -116 125 -55 -74 122 71
127 97 -122 125 113 -98 127 -79
-84 -20 109 93 95 -87 15 111
127 -19 35 122 123 68 -70 50
-24 -81 127 3 94 119 -120 15
127 76 -44 53 46 -68 8 -20
127 -104 -100 118 92 -88 -45 -48
127 -78 -75 98 -98 12 50 95
127 -70 -22 30 54 102 16 -51
-37 -77 43 47 69 -82 127 -77
-102 126 -67 73 -88 113 127 -115
83 1 -41 74 122 -83 -86 127
-119 -68 -84 47 -113 -3 -110 -118
127 124 -78 71 -24 -122 0 127
-121 -98 6 -27 68 -80 32 -66
-57 -36 -85 127 22 -89 -36 -111
127 -101 124 101 -35 -16 -86 -115
-27 26 -75 -9 127 22 -100 127

complex_cnn/conv2d_1/Conv2D i1 [32, 4, 4, 16]
00000000: ece5 53ba d61c 7211 18be 45f3 e1eb e84e
00000010: 2ddf cdc2 1c7a e9b3 1221 f310 df2b 0a1d
00000020: c2fb 5ec3 1ec3 c069 a824 f1e7 1edf 5dec
00000030: 5222 b3df 1661 95c4 06a8 04c9 b02a c5d5
00000040: dff7 20c4 28e6 6049 3a45 ff08 be07 eb41
00000050: 14ca 422a 2fe4 39d9 51d0 c311 d849 3206
00000060: 1b9f 0e5e e80e e3f8 e434 1907 1949 2eef
00000070: 24b6 59e8 4f1d 4620 e3c4 d2f1 f4d9 4251
00000080: 0649 f8ae 50c7 44d1 fc21 09cc ff03 47dc
00000090: 2c07 0ff9 e23d 2704 f726 1fdf 2f1b 18b3
000000a0: a9b1 b225 3c2c 08c1 0c4d ea37 32b0 e7b7
000000b0: 54f7 243d 2f12 4baa 815e d304 2dfb 2906
000000c0: 16c3 42ad 237c 4c56 1d4d cfcc e4ed 6015
000000d0: 07e8 1ab6 cde9 3c25 b116 45f6 28dd c700
000000e0: ec3e 37cd d765 1f43 b3c5 0642 ed5c b8e1
000000f0: 2abb d5e2 14f5 db51 cce9 b8c3 a8cb 46c0
-20 -27 83 -70 -42 28 114 17
24 -66 69 -13 -31 -21 -24 78
45 -33 -51 -62 28 122 -23 -77
18 33 -13 16 -33 43 10 29
-62 -5 94 -61 30 -61 -64 105
-88 36 -15 -25 30 -33 93 -20
82 34 -77 -33 22 97 -107 -60
6 -88 4 -55 -80 42 -59 -43
-33 -9 32 -60 40 -26 96 73
58 69 -1 8 -66 7 -21 65
20 -54 66 42 47 -28 57 -39
81 -48 -61 17 -40 73 50 6
27 -97 14 94 -24 14 -29 -8
-28 52 25 7 25 73 46 -17
36 -74 89 -24 79 29 70 32
-29 -60 -46 -15 -12 -39 66 81
6 73 -8 -82 80 -57 68 -47
-4 33 9 -52 -1 3 71 -36
44 7 15 -7 -30 61 39 4
-9 38 31 -33 47 27 24 -77
-87 -79 -78 37 60 44 8 -63
12 77 -22 55 50 -80 -25 -73
84 -9 36 61 47 18 75 -86
-127 94 -45 4 45 -5 41 6
22 -61 66 -83 35 124 76 86
29 77 -49 -52 -28 -19 96 21
7 -24 26 -74 -51 -23 60 37
-79 22 69 -10 40 -35 -57 0
-20 62 55 -51 -41 101 31 67
-77 -59 6 66 -19 92 -72 -31
42 -69 -43 -30 20 -11 -37 81
-52 -23 -72 -61 -88 -53 70 -64

complex_cnn/conv2d_2/Conv2D i1 [16, 3, 3, 32]
00000000: fed9 1249 ecf2 09d9 679c e9c5 9bc8 1e1a
00000010: 16aa 98d1 73ad cd16 4712 48f0 acb6 a00a
00000020: be30 d624 4f58 ac05 35a2 0306 374d bbbd
00000030: 2134 b0f4 79d7 c1f4 dac7 f3fe 41ce 01f7
00000040: 49f6 e5b5 5607 76bf 05f5 5c28 f835 b934
00000050: b352 60c2 9509 42be 4963 7704 28a8 3fc0
00000060: b7a3 1f4b ddee 1213 002c cd29 e3ea 3340
00000070: da4e ac9c dc61 3c63 0732 4eff ec03 14eb
00000080: 13b4 c64d 2f9e f6d5 d610 eb40 ae03 eb05
00000090: e025 4e3a 2b3a aee3 c1b2 e8f8 4ada 3e58
000000a0: 44bb 492e bc3f 0481 a2ff c323 9b3b f910
000000b0: e2a9 ff55 d3be b150 4c31 4d9f ace0 c7eb
000000c0: e554 682b be5e 0cdb ee4e a80b 135b 4703
000000d0: b2be eb5e 2b5e 26ee 1758 35d2 f4a8 a085
000000e0: 1f3e d1df 6cd6 545d 6e5e 26fc 30fe b21e
000000f0: d32d bab8 204d 30ba ae61 c458 6042 bea3
-2 -39 18 73 -20 -14 9 -39
103 -100 -23 -59 -101 -56 30 26
22 -86 -104 -47 115 -83 -51 22
71 18 72 -16 -84 -74 -96 10
-66 48 -42 36 79 88 -84 5
53 -94 3 6 55 77 -69 -67
33 52 -80 -12 121 -41 -63 -12
-38 -57 -13 -2 65 -50 1 -9
73 -10 -27 -75 86 7 118 -65
5 -11 92 40 -8 53 -71 52
-77 82 96 -62 -107 9 66 -66
73 99 119 4 40 -88 63 -64
-73 -93 31 75 -35 -18 18 19
0 44 -51 41 -29 -22 51 64
-38 78 -84 -100 -36 97 60 99
7 50 78 -1 -20 3 20 -21
19 -76 -58 77 47 -98 -10 -43
-42 16 -21 64 -82 3 -21 5
-32 37 78 58 43 58 -82 -29
-63 -78 -24 -8 74 -38 62 88
68 -69 73 46 -68 63 4 -127
-94 -1 -61 35 -101 59 -7 16
-30 -87 -1 85 -45 -66 -79 80
76 49 77 -97 -84 -32 -57 -21
-27 84 104 43 -66 94 12 -37
-18 78 -88 11 19 91 71 3
-78 -66 -21 94 43 94 38 -18
23 88 53 -46 -12 -88 -96 -123
31 62 -47 -33 108 -42 84 93
110 94 38 -4 48 -2 -78 30
-45 45 -70 -72 32 77 48 -70
-82 97 -60 88 96 66 -66 -93
